…
ModuleNotFoundError. CatBoostModel are skipped. (optional: maybe installing CatBoostModel can fix it.)
[17565:MainThread](2024-05-30 20:41:01,358) INFO - qlib.MASTER - [pytorch_master_ts.py:255] - MASTER pytorch version...
[17565:MainThread](2024-05-30 20:41:01,740) INFO - qlib.MASTER - [pytorch_master_ts.py:298] - MASTER parameters setting:
 d_feat : 158
 d_model : 256
 t_nhead : 4
 s_nhead : 2
 n_epochs : 40
 lr : 8e-06
 beta : None
 train_stop_loss_thred : 0.05
 visible_GPU : 0
 seed : 2
[17565:MainThread](2024-05-30 20:41:01,740) INFO - qlib.MASTER - [pytorch_master_ts.py:323] - model:
MASTER(
  (feature_gate): Gate(
    (trans): Linear(in_features=63, out_features=158, bias=True)
  )
  (x2y): Linear(in_features=158, out_features=256, bias=True)
  (pe): PositionalEncoding()
  (tatten): TAttention(
    (qtrans): Linear(in_features=256, out_features=256, bias=False)
    (ktrans): Linear(in_features=256, out_features=256, bias=False)
    (vtrans): Linear(in_features=256, out_features=256, bias=False)
    (attn_dropout): ModuleList(
      (0-3): 4 x Dropout(p=0.5, inplace=False)
    )
    (norm1): LayerNorm((256,), eps=1e-05, elementwise_affine=True)
    (norm2): LayerNorm((256,), eps=1e-05, elementwise_affine=True)
    (ffn): Sequential(
      (0): Linear(in_features=256, out_features=256, bias=True)
      (1): ReLU()
      (2): Dropout(p=0.5, inplace=False)
      (3): Linear(in_features=256, out_features=256, bias=True)
      (4): Dropout(p=0.5, inplace=False)
    )
  )
  (satten): SAttention(
    (qtrans): Linear(in_features=256, out_features=256, bias=False)
    (ktrans): Linear(in_features=256, out_features=256, bias=False)
    (vtrans): Linear(in_features=256, out_features=256, bias=False)
    (attn_dropout): ModuleList(
      (0-1): 2 x Dropout(p=0.5, inplace=False)
    )
    (norm1): LayerNorm((256,), eps=1e-05, elementwise_affine=True)
    (norm2): LayerNorm((256,), eps=1e-05, elementwise_affine=True)
    (ffn): Sequential(
      (0): Linear(in_features=256, out_features=256, bias=True)
      (1): ReLU()
      (2): Dropout(p=0.5, inplace=False)
      (3): Linear(in_features=256, out_features=256, bias=True)
      (4): Dropout(p=0.5, inplace=False)
    )
  )
  (temporalatten): TemporalAttention(
    (trans): Linear(in_features=256, out_features=256, bias=False)
  )
  (decoder): Linear(in_features=256, out_features=1, bias=True)
)
[17565:MainThread](2024-05-30 20:41:01,740) INFO - qlib.MASTER - [pytorch_master_ts.py:324] - model size: 0.7391 MB
/Users/boss/qlib/.venv/lib/python3.9/site-packages/qlib/contrib/model/pytorch_master_ts.py:231: FutureWarning: The default dtype for empty Series will be 'object' instead of 'float64' in a future version. Specify a dtype explicitly to silence this warning.
…
